src/z1_sdk/scripts/gesture_mlp_20251201_164331.pt (torch, 78498 bytes, 20 tensors)

network.0.weight f4 [128, 44]
000000 5c 25 ba 3d a1 3b 68 bd 05 80 d7 3d 67 39 ac bb
       0.09089157 -0.05669749 0.10522465 -0.0052558663
000010 8b d7 6e 3d e2 57 00 be 56 2c c0 3d 49 66 05 3d
       0.058311027 -0.12533525 0.093834564 0.03256825
000020 4b 50 63 bd 17 06 eb bd 55 cd 3f bd dc de c0 bd
       -0.055496495 -0.11475771 -0.04682668 -0.09417507
000030 dc 94 8e bd 12 8d 09 3e a9 65 dc bd 04 e0 c9 3d
       -0.069619864 0.1343272 -0.10761578 0.09857181
000040 66 62 e5 bd e0 b9 b2 3d 70 53 45 bc ad 6c 18 be
       -0.11200409 0.08726859 -0.012043819 -0.14885207
000050 85 0a d4 3d bc d1 ac bd 78 1d 7e 3d 0a 7b 06 3d
       0.10353569 -0.08438441 0.062039822 0.032832183
000060 6b 0f a3 3d 2f 1d 1c bd b9 3a 65 3d 90 7a ec 3d
       0.07961925 -0.03811377 0.055964205 0.115468144
000070 6f 00 3e 3c e2 a5 64 3b 82 f5 c6 bd a1 43 af 3b
       0.011596783 0.0034888913 -0.09714796 0.005348638
000080 b8 3f 09 bc 8e 64 19 3e 92 25 fd 3c 03 37 bd bd
       -0.008377008 0.14979765 0.030901704 -0.09239008
000090 c8 d0 5d bd 49 ac 1f 3e 45 1e 96 bd 0d e4 0b be
       -0.054154187 0.15593065 -0.07329992 -0.13661213
0000a0 73 a8 bd 3d 46 d4 16 be 85 05 4e bc f9 ef 98 bd
       0.09260645 -0.14729413 -0.012574558 -0.07467646
0000b0 d6 51 8a 3d e3 7f b9 3c f6 7e af bd 4f d0 c4 3d
       0.0675389 0.022643989 -0.08569138 0.09610044
0000c0 de 48 a9 bd 50 91 06 3e 7f 66 a7 3d a0 9a e3 3d
       -0.082658514 0.1314137 0.081738465 0.11113477
0000d0 a9 a1 7e 3d 14 e0 17 bd 5e ab 59 3c d3 30 fb 3d
       0.06216589 -0.037078932 0.013285486 0.12265172
0000e0 6d ff da 3d fe 00 44 bc af 67 66 3c 11 bf 19 3e
       0.1069325 -0.011963127 0.014062806 0.15014292
0000f0 64 ae 11 3c c6 aa a5 bd 79 2c 12 be 45 d2 ca 3d
       0.008891676 -0.08089213 -0.14274777 0.09903387
000100 84 d5 db 3d 22 16 b1 bd 7f ba b9 bd 0b f4 1a be
       0.10734084 -0.086467996 -0.090687744 -0.15132158
000110 22 8a 3f bd db 0a 05 3e 77 79 94 bd 14 02 09 3e
       -0.046762593 0.12992422 -0.0724973 0.13379699
000120 1d 4a db bd 85 eb e7 bd 92 5d 08 3e f0 6a 6a 3d
       -0.10707495 -0.11324219 0.13316944 0.05723089
000130 2b ac 68 3b 8e b6 43 bd 45 71 ab 3d cb 9b 2d 3d
       0.003550301 -0.04778152 0.08371214 0.042384904
000140 2b 0a ce bc ab 30 7d bd 64 7b f1 3d 49 e6 d1 bc
       -0.025151333 -0.06181399 0.11791113 -0.025622504
000150 9f bd fb bd f8 36 3f 3c 05 a3 9a 3d cb 32 07 3e
       -0.12292027 0.01167082 0.07550625 0.1320297
000160 27 b0 da bc 45 be 09 be 2b 1b dc bd a1 23 91 bd
       -0.026695324 -0.13451488 -0.107473694 -0.07086874
000170 3c 45 fd 3d c6 a3 3c 3d 23 47 bd 3d 73 e6 5c 3d
       0.12366721 0.046054624 0.09242084 0.05393071
000180 0f 64 ff bd fe ce 7b 3d 86 a4 8c bd 6b 83 92 bd
       -0.124702565 0.0614767 -0.06867318 -0.07153972
000190 e3 4a 97 3d 7a c7 8f 3d 94 d1 01 3d b6 c6 0c bd
       0.073873304 0.07020469 0.03169401 -0.034369193
0001a0 30 d0 f4 3c 49 99 f0 bd 09 f7 82 bd fe 59 7d 3d
       0.029884428 -0.11747987 -0.063947745 0.0618534
0001b0 ac 16 7f bd 88 8b 6d bd 9d 5b da bc 53 c7 e8 3d
       -0.06227748 -0.057994395 -0.026655013 0.11366143
0001c0 3b ea 26 3d c7 a2 99 3c e0 02 92 bc 9d 41 b4 3d
       0.040750723 0.018754376 -0.017823637 0.08801577
0001d0 c0 f9 17 be ea ee f1 bd 64 a4 af 3d 26 18 0c 3e
       -0.14841366 -0.11813147 0.08576277 0.13681087
0001e0 ff f4 6d 3d a5 b7 0e 3c 71 71 83 bd ab 0d 11 3e
       0.058094975 0.008710776 -0.064181216 0.1416537
0001f0 a4 63 d1 bd 15 fb 54 3d b1 3b 0b 3d 7f 37 cd bd
       -0.10224083 0.051997263 0.033992473 -0.10020351
000200 58 77 bf 3c 0a 29 c2 bd 21 bc 01 3d 33 26 a3 bd
       0.023372337 -0.09480484 0.031673554 -0.0796627
000210 8c 4f 4a bd 8d ea d7 3d 28 a1 b5 bd 5c 0a 59 bd
       -0.049392268 0.10542784 -0.08868629 -0.052988395
000220 b6 87 19 be 3f 84 3d bd 8c 32 1c bd d0 47 bd 3c
       -0.14993176 -0.046268698 -0.038134143 0.023105532
000230 ae d0 97 3d 1f fe b6 bb 12 26 ff bd 1e 00 96 bd
       0.07412849 -0.005584493 -0.12458433 -0.07324241
000240 d0 49 09 3e 29 d2 71 3c 0a 59 05 3e 80 f2 9d 3d
       0.13407063 0.014759579 0.13022247 0.07712269
000250 06 56 51 3c 3a b1 1f bd 05 11 19 3c 18 ec 8a 3c
       0.012776857 -0.038987376 0.009342437 0.016958281
000260 61 88 15 be 88 d5 8c bd 38 2f d9 bc 05 d0 45 3d
       -0.14602806 -0.06876665 -0.026511773 0.048294086
000270 30 e0 0e be 31 8c fb ba 1b 4d 1e bd 04 dd 38 bd
       -0.13952708 -0.001919156 -0.038647752 -0.045132652
000280 a3 1d 05 be 72 09 d3 3d c8 2d d0 3d 2b 76 d8 3c
       -0.12999587 0.10304536 0.10164982 0.026423534
000290 d7 fc cf bd 7b bc b5 3d c6 bd 90 3d 99 ca 8f bd
       -0.10155647 0.088738404 0.070674464 -0.07021064
0002a0 51 e0 f9 3d 00 1d da 3c 51 63 89 3d a8 74 d7 bd
       0.12200988 0.026625156 0.06708396 -0.10520297
0002b0 25 06 f8 bd ad 9e fa 3c 21 29 e0 bd 72 ed d4 bc
       -0.12110547 0.03059324 -0.10945345 -0.025992129
0002c0 61 14 e6 bd c5 8a f8 3c bd 79 d4 bd c0 9d ce bd
       -0.11234356 0.030339608 -0.10374782 -0.10088682
0002d0 61 36 1f bd 3b 4f 72 bd e6 f8 90 bd 1a b3 04 3e
       -0.03887022 -0.05915759 -0.070787236 0.12958947
0002e0 a2 bb 97 bc 01 1c 8f bd c5 83 df bc ad 5f e1 3d
       -0.018522087 -0.06987763 -0.027284512 0.11004577
0002f0 8d 86 cd bd 3b ce 84 3d 53 52 9e bc 88 41 c7 bd
       -0.10035429 0.06484648 -0.019326365 -0.09729296
000300 97 39 65 3d 0e cb de bc e8 dc 8b bd 18 a9 d7 bd
       0.055963125 -0.027196433 -0.06829244 -0.10530299
000310 ec 47 34 3d fb 02 36 bd cd 5c 3b bd f6 34 6a 3d
       0.044013903 -0.044436436 -0.0457428 0.057179414
000320 eb e5 0b be 66 de 01 be 39 a0 01 be 5e cd 0c be
       -0.13661925 -0.12682495 -0.12658776 -0.13750216
000330 70 40 d2 3d 26 a3 ac 3d 48 c8 04 3e 82 99 66 3b
       0.10266197 0.084295556 0.12967026 0.0035186713
000340 e7 54 8f 3d a3 8d d1 bd 00 5c d3 bd f3 92 e4 3d
       0.06998616 -0.10232093 -0.10320282 0.11160841
000350 0c 23 2a 3d 0e bf 19 3d 8a 69 44 3d cd 99 95 3d
       0.04153733 0.03753572 0.047952212 0.07304726
000360 78 3f 18 3d c2 48 77 3d 78 2a bc 3d 76 ec 9e 3d
       0.037169904 0.06037212 0.09187788 0.07759945
000370 55 41 e7 3d a4 aa 02 be c1 cc c3 bb e8 33 df 3d
       0.11291758 -0.12760407 -0.0059753363 0.10898572
000380 8d eb d0 3d 38 d0 ec bd f6 4d ef bd 18 64 94 bc
       0.10201178 -0.11563152 -0.11684792 -0.018114135
000390 30 37 8b 3d bd 44 45 ba 84 4e cc bd 25 1b 26 3d
       0.067976356 -0.00075251964 -0.09975913 0.04055323
0003a0 a1 8a e4 bd 43 d2 18 be ac ad b0 bd de 34 7b bd
       -0.11159254 -0.14923958 -0.08626875 -0.061329715
0003b0 6d f9 06 3e dc 43 dc bd 24 d9 4f bd 96 66 76 3c
       0.13181086 -0.10755131 -0.05074419 0.015039107
0003c0 9c 8c 69 bd c2 23 4a 3d 68 d6 26 bc 0a 74 b1 bb
       -0.05701886 0.049350508 -0.010182954 -0.0054154443
0003d0 7b 0f 8f bc 8f b5 6f 3d d9 5b aa 3d 27 ec ac bd
       -0.017463436 0.058522757 0.083183 -0.0844348
0003e0 ba 30 ed 3d 29 30 94 bd c3 d1 70 bd 66 6e 97 bc
       0.115815595 -0.07235748 -0.058793794 -0.01848526
0003f0 01 c1 db 3d 28 97 62 bd 51 df 0a 3d b0 7e 47 bd
       0.10730172 -0.055319935 0.033904377 -0.048704803

network.0.bias f4 [128]
000000 4e d7 73 3a a0 a0 ad 3d b6 5f e9 3c 17 71 92 bd
       0.0009301797 0.084779024 0.028488021 -0.071504764
000010 3f f3 b9 bd 1d 46 bd 3b 3e 00 66 bd 72 23 9e bd
       -0.09079599 0.0057761804 -0.056152575 -0.077216044
000020 72 95 bd bd 22 b6 ed bd ef 4e 24 3e de 18 37 bd
       -0.0925702 -0.11607005 0.16045736 -0.04470145
000030 59 e8 aa 3c 32 f0 ac bd 46 5c 53 bd 2c b7 24 be
       0.020862745 -0.08444251 -0.05160167 -0.160855
000040 17 2a 29 3d 8b 59 e4 3d c6 6f 1c 3e 6e d0 ea bd
       0.041299906 0.111498915 0.15277013 -0.11465536
000050 49 ba 5d 3d 48 71 a6 3b 62 97 0c 3e ad 7b 92 3d
       0.054132733 0.005079422 0.13729623 0.071524955
000060 62 ab 98 bd ac ab bb bd a2 19 11 be 03 b3 05 be
       -0.07454564 -0.09163603 -0.14169934 -0.13056569
000070 d5 b8 de 3d cc d0 80 bd 86 9f 70 3c d0 73 6f 3d
       0.10875098 -0.06289825 0.014686471 0.058460057
000080 06 46 cb 3d 00 7f fd bd ee ff 14 3b 5f 14 71 3c
       0.09925465 -0.12377739 0.0022735554 0.0147143295
000090 33 1d e7 3c 77 ec d3 bd 29 5c 0e 3e 2e 2e c0 bd
       0.028212165 -0.103478365 0.13902344 -0.09383808
0000a0 f4 b9 b6 3c 4c 1c a7 bd 31 63 3e 3d 23 c5 b3 3d
       0.022305466 -0.08159694 0.046481315 0.08777835
0000b0 d5 9d 69 3d 5f 81 04 3d d3 21 d1 3c e7 78 aa 3c
       0.057035286 0.03234994 0.025528824 0.020809604
0000c0 98 53 02 3e dc 89 9a 3d df c8 d0 bd 19 0d 80 bd
       0.12727201 0.07545826 -0.10194563 -0.06252498
0000d0 90 c5 2d bd 38 1d 21 bd 43 c2 ca 3d fc fc b0 3d
       -0.04242474 -0.039334506 0.09900334 0.08642003
0000e0 77 94 e6 3d ee 4c 9b bd e5 24 e9 3d 1b 94 05 be
       0.11258786 -0.075830325 0.1138399 -0.13044779
0000f0 e4 09 39 3d 6b da 8f 3c d1 62 09 be 77 4f 03 3c
       0.045175448 0.017560204 -0.13416602 0.008014551
000100 b2 51 de bc 16 4f e3 bd d4 6a 00 3e a9 fa 71 3c
       -0.027138565 -0.11099069 0.12540752 0.014769235
000110 ff 62 06 be 11 ce 0e 3c 4f ea 50 3d 2c 24 e2 3c
       -0.13123702 0.008716122 0.051004704 0.027605139
000120 c0 bb e2 bd 1f 0b 09 3e b9 f2 cc bd d3 cc ae 3d
       -0.11070967 0.13383149 -0.10007233 0.08535161
000130 41 53 51 3d e8 a1 d8 bc 0b 6e a0 bc a0 a0 fd bd
       0.051104788 -0.02644439 -0.019583723 -0.123841524
000140 8b 59 c2 3d b6 47 02 3d 7a 15 04 3e 9b be dc bd
       0.09489735 0.03180667 0.12898818 -0.107785426
000150 97 09 44 b9 df 94 c1 3d 9c 8b ee 3b 74 71 3e 3d
       -0.00018695589 0.09452223 0.0072798263 0.046494916
000160 d8 b4 58 3d b4 08 80 bd 74 1c ba bd 72 22 76 bd
       0.05290684 -0.0625166 -0.09087458 -0.060091443
000170 3b ff ac 3c d1 7d 3f bd c8 6b c9 3c a7 84 05 3e
       0.021117797 -0.046750847 0.024587527 0.13038884
000180 4a a6 0e be 77 c7 9b 3d ed fc d4 3d 96 f3 ad bd
       -0.13930622 0.07606404 0.10399804 -0.08493726
000190 13 9f ba bc 00 46 b2 bd 76 73 34 3d 29 74 a8 3d
       -0.02278093 -0.08704758 0.044055425 0.08225281
0001a0 a0 c5 b6 bc 95 57 e8 bc 3c 11 1e 38 07 09 09 be
       -0.022311032 -0.028362075 3.7686186e-05 -0.1338235
0001b0 54 f8 0a be b9 e2 ac 3d ab 4d fe bc d1 9c 23 be
       -0.13571292 0.084416814 -0.031042894 -0.1597779
0001c0 82 1f d2 bc a8 c2 6d 3c 49 19 2f 3d 53 c3 d3 3c
       -0.02564979 0.014511742 0.042748723 0.025849974
0001d0 f5 4f c5 3d d5 a2 2f bd 02 63 c3 3c a2 69 90 bd
       0.09634391 -0.042879898 0.023850922 -0.07051398
0001e0 26 4d 70 3d cd 5e 29 3d 8d f2 14 be b1 45 3d bd
       0.058667324 0.041350175 -0.14545651 -0.04620904
0001f0 04 4d a1 3d 30 f9 03 be c2 3b 97 3c 53 a1 47 be
       0.07876018 -0.12888026 0.018461112 -0.19495134

network.2.weight f4 [128]
000000 6c 83 81 3f c9 fa 71 3f ae 4c 85 3f 00 00 80 3f
       1.0118232 0.9452329 1.0414026 1.0
000010 9a 10 82 3f 69 f6 70 3f 01 8e 7a 3f 96 a3 7d 3f
       1.0161316 0.9412599 0.9787293 0.9907774
000020 ab 99 7d 3f 9e 22 7c 3f 4c ba 80 3f d2 5d 68 3f
       0.99062604 0.9849032 1.0056853 0.9076816
000030 be d7 80 3f 95 ae 7d 3f 8b e1 76 3f ee 01 7f 3f
       1.0065839 0.99094516 0.964379 0.9961232
000040 11 3d 7e 3f b9 f3 81 3f 30 79 7d 3f 00 00 80 3f
       0.9931193 1.0152503 0.9901304 1.0
000050 0a 07 7b 3f 00 00 80 3f 34 37 79 3f 0f 9f 80 3f
       0.98057616 1.0 0.9734986 1.0048541
000060 dc f1 7b 3f 98 7b 80 3f 1c 87 77 3f 48 d8 80 3f
       0.98415923 1.0037718 0.96690536 1.0066004
000070 78 33 7b 3f 2f f8 7f 3f 00 00 80 3f bd 1d 7c 3f
       0.9812541 0.99988073 1.0 0.98482877
000080 fc e5 7a 3f 16 36 81 3f e9 b0 80 3f 8c 96 84 3f
       0.9800718 1.0094631 1.0053989 1.0358443
000090 0b 77 80 3f 00 00 80 3f a7 32 79 3f 20 ed 81 3f
       1.0036329 1.0 0.97342914 1.015049
0000a0 71 14 88 3f 00 00 80 3f e4 ba 83 3f 1a c3 77 3f
       1.0631238 1.0 1.029141 0.96782076
0000b0 bb a7 6f 3f 63 b3 81 3f c5 a4 7f 3f 3b 5f 82 3f
       0.9361531 1.013287 0.99860793 1.0185312
0000c0 e2 33 74 3f 00 00 80 3f 00 00 80 3f 00 00 80 3f
       0.95391667 1.0 1.0 1.0
0000d0 1a f5 7e 3f b3 70 81 3f 54 73 82 3f 70 f2 80 3f
       0.99592745 1.0112518 1.0191445 1.0073986
0000e0 ea 6b 83 3f 00 00 80 3f c0 6f 7b 3f 92 3d 80 3f
       1.0267308 1.0 0.9821739 1.001879
0000f0 27 22 77 3f 6d 76 7e 3f 00 00 80 3f ba 68 7e 3f
       0.9653649 0.99399453 1.0 0.9937855
000100 21 6a 84 3f 00 00 80 3f b2 3f 80 3f 5d 5a 7d 3f
       1.0344888 1.0 1.0019438 0.9896601
000110 41 2a 87 3f 57 23 80 3f 00 00 80 3f 14 31 7b 3f
       1.055977 1.0010785 1.0 0.9812176
000120 00 00 80 3f 86 7f 83 3f 05 ee 77 3f 32 3d 82 3f
       1.0 1.0273292 0.96847564 1.0174925
000130 ee 20 86 3f 59 91 80 3f 13 84 75 3f 5a 9d 80 3f
       1.0478799 1.0044357 0.95904654 1.004802
000140 96 fa 7e 3f 87 fc 85 3f 25 ce 77 3f 5b 72 75 3f
       0.99601114 1.046769 0.96798927 0.9587762
000150 20 03 7d 3f b1 b5 7c 3f bf 37 70 3f 42 0e 82 3f
       0.98832893 0.9871474 0.9383506 1.0160601
000160 00 00 80 3f 74 c7 83 3f 5d 5e 82 3f 00 00 80 3f
       1.0 1.0295243 1.0185047 1.0
000170 99 7e 83 3f 47 53 81 3f 98 dd 80 3f 42 26 80 3f
       1.027301 1.0103539 1.0067625 1.0011675
000180 82 c2 77 3f 94 60 82 3f d0 43 7d 3f f4 0a 7a 3f
       0.9678117 1.0185723 0.989316 0.97672963
000190 b6 cf 83 3f 4c 96 78 3f 4d a0 7d 3f 1d e2 7d 3f
       1.0297763 0.97104335 0.99072725 0.99173146
0001a0 53 38 80 3f c1 5d 83 3f 00 00 80 3f 00 00 80 3f
       1.0017189 1.0262986 1.0 1.0
0001b0 00 00 80 3f ed a7 83 3f 54 b1 81 3f 7f 8a 79 3f
       1.0 1.0285622 1.0132241 0.97476953
0001c0 e7 de 7e 3f 5f bb 83 3f 53 c6 78 3f 00 00 80 3f
       0.9955887 1.0291556 0.9717762 1.0
0001d0 4c c5 7e 3f ed 34 81 3f ad 76 84 3f 27 25 74 3f
       0.995198 1.0094277 1.0348717 0.9536919
0001e0 87 43 81 3f 00 00 80 3f fa 4c 77 3f 29 7a 84 3f
       1.0098733 1.0 0.9660183 1.034978
0001f0 65 8b 7b 3f e5 70 85 3f cb 28 7c 3f 5e 7e 82 3f
       0.98259574 1.0425078 0.98499745 1.0194814

network.2.bias f4 [128]
000000 9b 03 8e bc c9 ae da 3c 4d ec 34 bc 00 f1 90 3d
       -0.017335704 0.026694672 -0.011042667 0.07077217
000010 f7 38 1a bc 9f 73 ec bb cc 2d b6 bc de 39 66 bd
       -0.009412996 -0.0072159315 -0.022238635 -0.05620753
000020 e9 28 61 3b 07 44 a0 bc 07 55 46 bc 72 2f a7 39
       0.003435666 -0.019563688 -0.012105233 0.00031888072
000030 14 12 6e bd 36 69 37 bc 57 01 29 bc bc 27 0e bc
       -0.05812271 -0.011194518 -0.010315261 -0.008676466
000040 1b 2d 2a bb 01 0e 12 3d 6a c3 db 3c 37 ff b7 bd
       -0.0025966826 0.035657886 0.02682658 -0.08984225
000050 e1 9e 0a 3c bd 87 bc 3d 25 ca 0d 3d e1 ec 0d bc
       0.008460731 0.092055775 0.03461661 -0.008662433
000060 a2 9b 62 bd fb 1f 34 bd 45 e2 42 bc ca 60 9d 3a
       -0.055324204 -0.04397581 -0.011894767 0.0012006995
000070 e1 bf 82 b8 4d 81 b9 bc e2 2b 18 bd 07 21 cc bc
       -6.234623e-05 -0.022644663 -0.037151225 -0.024918092
000080 63 9e 3b bc 3b 9f e0 bc 01 08 b1 bc d5 fc 1c 3d
       -0.011451337 -0.027419677 -0.021610262 0.038327057
000090 33 31 e5 3c 1f d9 79 3d 19 35 00 bd 09 55 3c bc
       0.027977562 0.06099808 -0.031300638 -0.011494883
0000a0 20 61 81 bd b2 4a 9e bd b6 d3 bc bc a6 30 31 bc
       -0.06317353 -0.07729091 -0.02305017 -0.010814821
0000b0 fe eb fa bc 37 42 44 3b 8c 6f aa 3a 6c 23 7b bd
       -0.030630108 0.0029946694 0.0013003214 -0.061313078
0000c0 30 76 8d bb e0 7e c8 bd ff 1f 2c 3d d7 cc 48 3c
       -0.0043170676 -0.097898245 0.0420227 0.012255869
0000d0 57 2f 0c 3b 78 ba 42 bc 5d 7b 43 3d 80 1c fa bc
       0.0021390521 -0.011885278 0.04772507 -0.030531168
0000e0 a6 c6 1a b8 8d 4b db bd d2 b6 39 bd e6 b6 a9 bb
       -3.6901467e-05 -0.107077695 -0.045340367 -0.005179274
0000f0 f5 3f e3 bc ea f6 d5 3d 34 ad 14 3e 9b 2a 76 ba
       -0.027740458 0.10447486 0.14519197 -0.0009390504
000100 a8 99 37 bd 12 bd 0f be 66 9d b1 bb 3e 76 a4 bd
       -0.044824272 -0.14036968 -0.0054203747 -0.080303654
000110 4a 1c a3 bd ef ad 04 bd 20 e7 de bd 1c f6 4c 3a
       -0.0796438 -0.03239244 -0.10883927 0.00078186556
000120 cd ae 80 39 e2 0d 62 bc 27 09 09 3d c8 52 c2 bc
       0.000245443 -0.013797255 0.033455994 -0.023721114
000130 93 8e 5c bc 61 34 da bc 3f 35 38 bc 8c 9a 75 bd
       -0.013461727 -0.026636304 -0.011243164 -0.05996184
000140 07 ff 76 3c c8 3b 3e bb 26 57 ae bc 4b c3 32 bd
       0.015075452 -0.0029027332 -0.02128179 -0.043643277
000150 43 98 80 bd dd 47 16 bc 8e 36 59 3d 9b e9 52 bd
       -0.062790416 -0.009172407 0.053030543 -0.051492315
000160 cb dc d2 bd 64 f9 ed 3c e5 21 03 3c 9a c3 8b 3c
       -0.10296019 0.029049583 0.008003687 0.017061044
000170 d9 d9 73 bc 51 e3 f8 3b f7 a6 10 3d 85 26 fa 3c
       -0.014883482 0.0075954576 0.03531548 0.030535946
000180 e8 0c 86 bc ba 8f 9c 3c 49 ff 08 bd 25 f4 13 3d
       -0.016363576 0.019111503 -0.033446584 0.036121506
000190 bb 2e 6d bd 3a b2 04 bd 04 82 eb bc a8 48 53 3b
       -0.057905894 -0.032396533 -0.02874852 0.0032239351
0001a0 af b7 31 3c dc 79 4c bc 90 f7 f9 bd b3 76 cb 3d
       0.010847016 -0.012480225 -0.12205422 0.099347495
0001b0 f5 a1 ab 3d b3 de 8b bc d0 61 01 bd df 66 6a bd
       0.083805 -0.017073965 -0.031587422 -0.05722701
0001c0 23 23 fb 3b 60 03 41 3c 06 93 19 3d e0 24 93 3d
       0.0076641007 0.01178059 0.037493728 0.07184768
0001d0 9c 2b 9f bc 1b 89 06 bc 2b 35 7c bb 65 84 2f 3c
       -0.019429974 -0.008211399 -0.003848384 0.010712718
0001e0 fc e1 bd bc ca 0b d9 bd fc 28 20 3d d4 ea ed bc
       -0.023179047 -0.10597952 0.039101586 -0.029042639
0001f0 c6 f4 07 3d 60 59 df bc b1 b7 9b bc bc 94 70 bd
       0.03319242 -0.027264297 -0.01900849 -0.058735594

network.2.running_mean f4 [128]
000000 a2 de bc 3e 6f 33 98 3d 9e 3c e9 3c 00 00 00 00
       0.36888605 0.07431685 0.028471287 0.0
000010 04 00 00 00 79 ec 15 3b 64 4c c4 3c ec 16 6a 3e
       6e-45 0.0022876544 0.023962207 0.22860307
000020 bc 38 ed 3a 5c ac 61 3e 5a e3 ae 3e 38 be e8 3a
       0.0018098573 0.22038406 0.3415783 0.0017756885
000030 4f 09 a4 3e 04 00 00 00 83 a7 17 3b 15 40 d8 3b
       0.32038352 6e-45 0.0023140616 0.006599436
000040 d9 f0 e4 3a 10 3c 78 3e 66 e0 4d 3e 00 00 00 00
       0.0017466798 0.24241662 0.20105132 0.0
000050 6f 9e 59 3e 00 00 00 00 8e 05 b6 3e fd 28 05 3b
       0.21251844 0.0 0.35551113 0.002031862
000060 b3 3f e2 3e 4a 6c 53 3b 1e 13 cc 3e 32 ab 2f 3e
       0.44189224 0.003226059 0.39858335 0.1715515
000070 42 b3 e9 3e 04 00 00 00 00 00 00 00 cd 38 82 3c
       0.45644575 6e-45 0.0 0.015896225
000080 9f 70 9d 3c f4 7f 4a 3e 22 3c ce 3a 9c 41 0b 3e
       0.019218741 0.19775373 0.0015734474 0.13599247
000090 6b 2d 5c 3d 00 00 00 00 2c b2 04 3f 7c 37 14 3e
       0.05375425 0.0 0.5183437 0.1447429
0000a0 60 f9 a2 3a 00 00 00 00 2c 79 ce 3e 3b 58 e7 3e
       0.0012433939 0.0 0.40326822 0.45184502
0000b0 d1 5b 4f 3f 46 35 9b 3e 00 6c 4e 3e 86 e0 86 3d
       0.80999476 0.30314082 0.20158386 0.06585793
0000c0 35 a5 47 3e 00 00 00 00 00 00 00 00 00 00 00 00
       0.19496615 0.0 0.0 0.0
0000d0 3f d0 8f 3e 2f f5 96 3c 2c 6c 8c 3e 2f 0c a8 3e
       0.28088567 0.01842746 0.2742628 0.32821795
0000e0 9b ac aa 3a 00 00 00 00 45 72 ba 3d 00 c6 59 3e
       0.0013021411 0.0 0.091038264 0.21266937
0000f0 9c 3d 15 3e 04 00 00 00 00 00 00 00 58 56 2f 3e
       0.14574283 6e-45 0.0 0.17122781
000100 d9 99 b0 3d 00 00 00 00 98 39 b7 3a d0 4a 35 3e
       0.08623094 0.0 0.0013978956 0.1770432
000110 19 e0 a3 3d e9 e5 df 3a 00 00 00 00 3c 78 cb 3e
       0.080017276 0.0017082068 0.0 0.3974017
000120 00 00 00 00 04 98 9a 3c d2 26 0c 3f 8d 22 f5 3c
       0.0 0.018871315 0.54746735 0.029923702
000130 ac a0 5d 3e 9d 7d 8d 3e 9b e3 62 3e 8f fa 16 3d
       0.21643323 0.27634898 0.22157137 0.036860045
000140 e7 66 b3 3e b0 2e b1 3b ca c0 9b 39 96 84 44 3d
       0.35039446 0.005407177 0.00029707543 0.047978006
000150 ac be 96 3b 2b f3 b9 3d a5 0c 6e 3c d6 9d 37 3e
       0.0046003666 0.09079584 0.014529382 0.17931303
000160 00 00 00 00 50 25 e1 3d 10 4a ea 3d 00 00 00 00
       0.0 0.10993445 0.114399076 0.0
000170 0a dd 93 3b 1c 41 73 3c f2 62 9b 3e c6 93 2d 3e
       0.004512434 0.014847066 0.30348927 0.16950902
000180 57 f9 61 3c 8a 68 95 3b 9f a9 98 3d d0 3b 0e 3c
       0.013792357 0.004559581 0.07454228 0.008681253
000190 57 3c 8b 3a 04 00 00 00 38 6e 80 3c 6a 20 6c 3e
       0.0010622841 6e-45 0.015677556 0.2305924
0001a0 04 00 00 00 04 00 00 00 00 00 00 00 00 00 00 00
       6e-45 6e-45 0.0 0.0
0001b0 00 00 00 00 2c 9f c4 3e 10 da b6 3d e7 ca 40 3d
       0.0 0.38402689 0.08928311 0.047068503
0001c0 04 00 00 00 7c c3 3a 3e bd 67 1d 3e 00 00 00 00
       6e-45 0.18238634 0.15371604 0.0
0001d0 7f eb e5 3c ee 85 33 3d ff 32 83 3d 93 8b 07 3f
       0.028066395 0.043828897 0.06406211 0.5294735
0001e0 8d c5 43 3b 00 00 00 00 40 0d 40 3e 72 4e c6 3c
       0.0029872388 0.0 0.18755054 0.024207328
0001f0 23 a5 7a 3c be 9e a2 3d de 79 ca 3e 04 00 00 00
       0.015298161 0.07940434 0.39546102 6e-45

network.2.running_var f4 [128]
000000 c8 a1 12 3c 94 50 95 3b d5 39 68 3a 04 00 00 00
       0.0089497045 0.004556725 0.00088587153 6e-45
000010 04 00 00 00 43 41 3e 39 e4 b7 95 3b c4 33 3e 3c
       6e-45 0.00018144124 0.0045690406 0.011609022
000020 4b 66 1b 39 06 12 ee 3b 82 c2 ee 3b 7e 1d d7 38
       0.00014820059 0.007265332 0.0072863707 0.00010257492
000030 a7 11 e4 3b 04 00 00 00 70 6f 46 39 01 3f d1 39
       0.006960112 6e-45 0.00018924265 0.00039910528
000040 f9 32 10 39 f5 b7 41 3c ab a1 c3 3b 04 00 00 00
       0.00013751899 0.011823644 0.0059702 6e-45
000050 f0 9c 10 3c 04 00 00 00 fb 42 f0 3b b3 db 43 39
       0.008826479 6e-45 0.0073322034 0.00018678494
000060 64 68 5b 3c a2 a6 aa 39 55 89 81 3c 0e a1 36 3c
       0.013391588 0.00032549078 0.015812555 0.011146797
000070 81 56 06 3c 04 00 00 00 04 00 00 00 89 89 cb 3a
       0.008199335 6e-45 6e-45 0.001552866
000080 7a da 6e 3b 50 c3 ff 3b c2 ef ea 38 e7 e3 3a 3c
       0.003644614 0.0078052655 0.00011202648 0.011406875
000090 ff 11 99 3b 04 00 00 00 05 cb 06 3d 8a de 9c 3b
       0.0046713348 6e-45 0.03290846 0.004787271
0000a0 fe be 92 38 04 00 00 00 90 a0 36 3c 4b 24 4a 3c
       6.9973976e-05 6e-45 0.0111466795 0.0123377545
0000b0 21 22 05 3d fa 96 14 3c 72 bb 8d 3c 41 cb f7 3b
       0.03250325 0.009069199 0.017301295 0.0075620716
0000c0 bd 65 8d 3c 04 00 00 00 04 00 00 00 04 00 00 00
       0.017260427 6e-45 6e-45 6e-45
0000d0 f5 e9 89 3c a9 57 39 3b 3a f8 e2 3b 36 28 29 3c
       0.016835192 0.002828101 0.0069265636 0.010324528
0000e0 ad e9 a0 38 04 00 00 00 58 e7 88 3b 6d 6e 78 3c
       7.67292e-05 6e-45 0.004177969 0.015163046
0000f0 b5 84 17 3c 04 00 00 00 04 00 00 00 1f 30 14 3c
       0.009247948 6e-45 6e-45 0.009044676
000100 9f 66 69 3b 04 00 00 00 d6 8b b9 38 13 89 46 3c
       0.0035614145 6e-45 8.847534e-05 0.012117642
000110 99 2c b3 3b d7 72 0a 39 04 00 00 00 25 22 5e 3c
       0.005467963 0.00013203487 6e-45 0.013557945
000120 04 00 00 00 ce 15 2d 3b 21 ee e2 3c 27 8a e7 3a
       6e-45 0.0026410702 0.02770144 0.0017665074
000130 2e f3 9f 3b 29 de 8b 3c b2 a4 cb 3b f9 fb 1f 3b
       0.004881284 0.017073708 0.0062147016 0.0024411662
000140 52 f7 74 3c 10 d1 20 3a f1 04 56 37 bc 87 41 3c
       0.014951544 0.00061346684 1.27565445e-05 0.011812147
000150 20 00 7b 3a 91 3e 01 3c 48 8d 94 3a 21 e9 33 3c
       0.0009574909 0.007888452 0.0011333609 0.010980875
000160 04 00 00 00 ad 7f 67 3b 5e 1b 3f 3c 04 00 00 00
       6e-45 0.0035323903 0.01166424 6e-45
000170 8f b7 43 39 2d 7c d7 3a 32 88 2e 3c 06 90 60 3b
       0.0001866503 0.0016440206 0.010652589 0.0034265532
000180 61 70 ac 3a 93 91 76 3a 27 07 0e 3c 2d 79 ca 39
       0.001315605 0.00094058475 0.008668697 0.00038618725
000190 e5 44 56 38 04 00 00 00 89 9a f5 3a 2a b4 83 3c
       5.108574e-05 6e-45 0.0018738072 0.01607712
0001a0 04 00 00 00 04 00 00 00 04 00 00 00 04 00 00 00
       6e-45 6e-45 6e-45 6e-45
0001b0 04 00 00 00 20 b8 5a 3c cf 17 a7 3b 0f 47 8c 3b
       6e-45 0.013349563 0.0050992738 0.004280932
0001c0 04 00 00 00 53 37 01 3c 3e 3b da 3b 04 00 00 00
       6e-45 0.0078867255 0.0066598943 6e-45
0001d0 77 49 9d 3b c8 be 64 3b 15 fa fc 3a 52 7f a4 3c
       0.0048000175 0.0034903754 0.0019300604 0.020080242
0001e0 d3 b3 d3 39 04 00 00 00 20 e3 05 3c 40 e5 e6 3a
       0.00040379036 6e-45 0.008171827 0.0017615929
0001f0 7d 5b 01 3b 36 74 c6 3b 9e 02 be 3c 04 00 00 00
       0.001973837 0.006056334 0.023194607 6e-45

network.4.weight f4 [64, 128]
000000 18 76 91 bc bb 03 99 3d 38 8b 93 3d 6d af 34 3d
       -0.017756507 0.07471415 0.07204288 0.04411261
000010 1d dd 37 3d bf 9a 78 bd d1 61 b0 bd 93 7f 44 3c
       0.044888604 -0.060694452 -0.08612407 0.011993307
000020 61 c9 63 3d 7f d6 6f 3d de f5 82 3c 1c 85 d3 3c
       0.05561197 0.05855417 0.01598638 0.025820307
000030 ac 81 47 bd 35 a1 c2 bd 7a b5 12 3d 6a 1b a4 bd
       -0.04870765 -0.09503404 0.0358176 -0.08013041
000040 72 f6 80 bc 3e dd 8d 3d 83 11 15 bc f3 a9 c4 bd
       -0.015742514 0.06926964 -0.009098413 -0.09602728
000050 9d 7f fd b9 60 e4 82 3d fa ad 44 3d eb 41 98 3c
       -0.00048351 0.06391215 0.04801748 0.01858612
000060 a7 1e 3e 3d 87 2f c5 bd 8e 37 b1 3b 97 ca af 3d
       0.04641595 -0.09628206 0.005408234 0.08583563
000070 be b9 e3 3c e3 a7 98 bb 90 f9 25 3d 66 33 d4 3c
       0.02779853 -0.0046586855 0.040521204 0.025903415
000080 5a db 24 bd 83 83 15 bc 71 5d 7b bd 38 2f e0 bc
       -0.040248252 -0.009125593 -0.06136841 -0.027366266
000090 49 d2 41 bd 5c 80 00 3e ed 06 75 bc 4a 8f 60 bc
       -0.047319684 0.12548965 -0.0149552645 -0.013706038
0000a0 c8 3a 92 bc 32 34 26 be c5 fd 3c 3d 02 23 70 3d
       -0.017850295 -0.16230848 0.04614045 0.058627136
0000b0 ec c5 a9 ba 1f 3a 04 3d be fc 01 3c 85 f1 38 bc
       -0.0012952662 0.03228199 0.007933794 -0.0112880515
0000c0 ed 9a 4b 3d f5 f8 cf bc 8c 76 2e bd ec a9 35 3c
       0.049708296 -0.025387267 -0.042593524 0.011087876
0000d0 fd fa 17 3d 83 73 72 bd e5 91 9a 3c 42 db 3f bc
       0.037104595 -0.05919219 0.018868396 -0.01170999
0000e0 14 66 a9 bd 62 b5 a4 bc da 91 1c 3d 91 6f b9 3d
       -0.08271423 -0.020106021 0.038225032 0.09054483
0000f0 64 09 f3 3a 85 a6 10 3e b5 ce 27 3e c3 03 2c 3d
       0.0018542227 0.14126022 0.16387446 0.041995775
000100 d4 67 8a bb 59 63 19 be 97 55 34 bd 36 3a 03 be
       -0.004223803 -0.14979304 -0.044026937 -0.12815174
000110 62 3b 18 bc 95 78 17 3c bd 3f 21 bd 47 1e 86 bd
       -0.009291502 0.009245058 -0.039367426 -0.06548744
000120 bb ff 76 3d b9 08 9f bd 5d 35 17 bd 6e 4f e3 bc
       0.060302477 -0.077653356 -0.036916126 -0.027747836
000130 21 9f 0b bd b0 1f 85 bc 0d 4d c9 3c 86 7f 01 be
       -0.034087304 -0.016250461 0.024572873 -0.12646303
000140 67 53 f7 bc e2 42 6d 3b 6a 51 95 bd c5 b5 64 bd
       -0.030191137 0.0036203195 -0.07290919 -0.05583741
000150 45 07 a7 bd d4 0c e8 bc cb 67 5f 3d b5 3c 27 bc
       -0.081556834 -0.02832643 0.054542344 -0.010207345
000160 57 4e 94 bd 35 3e c3 bd ae 2d 05 bd 77 a5 79 bd
       -0.07241505 -0.095333494 -0.032514267 -0.060948815
000170 c3 85 2e bd 38 0d a3 bd 85 fc 0d bd e0 19 86 bc
       -0.042608034 -0.07961506 -0.03466465 -0.01636976
000180 7f 40 94 bd 81 31 85 3c 6b ab d8 bd e1 56 b5 3c
       -0.07238864 0.016258957 -0.105795704 0.022136154
000190 d5 9e 86 bd 81 80 5d bd 1c 3e 55 bd 24 85 90 bc
       -0.065732636 -0.05407763 -0.052061185 -0.017641611
0001a0 ef 48 8b 3d ff fa a7 bc 78 17 e7 3b ce eb bd 3d
       0.0680102 -0.020505426 0.0070523582 0.09273492
0001b0 d0 4e a2 3d c0 89 62 3d d7 6d 11 bd 26 e2 f6 bc
       0.079251885 0.05530715 -0.035505142 -0.030137133
0001c0 f2 7c 8a bd c1 8e 0d bd 27 ed 8c 3c 92 8d 23 3e
       -0.06762113 -0.03455997 0.017202927 0.15971974
0001d0 5e be aa bd 06 79 2d 3d d5 2d 96 bd 4f a9 0b 3d
       -0.08337091 0.042351745 -0.073329605 0.034097012
0001e0 89 e5 c1 3a fd 70 14 bd f3 1c 75 3d 33 14 ea bd
       0.0014793138 -0.036240567 0.05984206 -0.11429634
0001f0 34 b8 a0 3c ef 69 42 bd f4 bf a2 3d d4 b1 5c bb
       0.019619085 -0.047464307 0.079467684 -0.003367533
000200 ff 90 ef 3c f9 d8 8c bc f7 c4 e5 bc 85 72 39 3e
       0.029243944 -0.017193304 -0.028048022 0.18110092
000210 6e fe f3 bc e0 92 4e bc 59 79 d8 bc 40 73 a8 bd
       -0.029784407 -0.01260826 -0.02642505 -0.08225107
000220 2a 66 21 bd a6 67 7f bd 52 44 90 3d 11 cb e1 bc
       -0.039404072 -0.062354706 0.07044281 -0.02756265
000230 a9 75 b7 bd 00 6c f7 bc 4e 03 bc 3d da a2 5d bc
       -0.08957989 -0.030202866 0.09180318 -0.013527596
000240 24 ae 8d bc 4d c4 f7 bc bb 39 74 3c 32 49 12 be
       -0.01729495 -0.03024497 0.014906342 -0.14285734
000250 79 63 80 bd bf dd 6b bc 49 f1 4c bb 58 bb 7d bb
       -0.06268973 -0.01439613 -0.0031271747 -0.0038716402
000260 4f 74 ad bc 22 d8 85 3c 50 38 bc 3c 5f 40 3b 3d
       -0.021173624 0.016338412 0.02297607 0.045715686
000270 0b 7d a0 bc de 78 2f bd 96 c6 43 3d 04 b6 a0 3d
       -0.019590875 -0.042839877 0.04779681 0.07847217
000280 77 e0 bc bc 13 31 82 bd 7f 9c 50 bd 9b a6 2a bd
       -0.023056252 -0.063570164 -0.050930496 -0.041662794
000290 3d 33 66 bc 19 77 96 3d ce e8 6e bd bc 8e f7 bc
       -0.014050302 0.07346935 -0.05832749 -0.030219428
0002a0 83 5d 13 bd b4 60 07 bd 35 8c 17 3d 9c 61 e1 3d
       -0.03597785 -0.033051208 0.036998946 0.11004946
0002b0 24 0b 6a bd 91 7d 0c 3c d7 15 88 bd c6 62 a0 3b
       -0.05713953 0.008574859 -0.066447906 0.004894587
0002c0 eb 72 b9 bc 64 7e 49 be bc de 18 3d e0 57 0e 3e
       -0.022637805 -0.1967712 0.03732179 0.13900709
0002d0 f6 62 13 bd 03 ca 42 3d 81 1c b5 bd 01 a1 ce 3b
       -0.03598305 0.047555935 -0.08843327 0.0063058143
0002e0 b6 bb 26 3c 3a b1 4e be 5a 00 3a 3c 6c 0d c8 bd
       0.01017659 -0.20184794 0.011352623 -0.09768185
0002f0 df c7 ab bb c4 77 6e 3d ba 8f ef 3d fe 3d 91 bd
       -0.0052423324 0.058219686 0.116973355 -0.07091902
000300 51 f6 b6 3d d1 05 ef bd c1 f3 62 bd 8f 04 5e 3d
       0.089337 -0.11671031 -0.055408243 0.054203566
000310 32 ea 90 3d f9 e6 78 bd 6c 31 15 be 7b 27 a9 bb
       0.07075919 -0.060767148 -0.14569634 -0.005162177
000320 57 1f ad ba 56 2c c0 bc 01 50 28 3d eb 5b 99 bd
       -0.0013208193 -0.023458641 0.041091923 -0.07488235
000330 9b a0 d8 bc 82 5e c2 3c d9 39 75 3d 2d 3e 75 3d
       -0.02644377 0.023726705 0.05986962 0.05987375
000340 20 b9 91 3d 91 c2 5b 3d 15 95 02 bd ca 3f 8a bd
       0.07115388 0.05365235 -0.031880457 -0.06750448
000350 39 ca 63 3d 45 cb ef bc 16 a7 6e 3d 50 f9 69 3d
       0.055612776 -0.029271731 0.058264814 0.05712253
000360 5c fb 9c bd bb 25 20 3d 9b f5 24 bd 61 ef 9a bc
       -0.076651305 0.039098483 -0.04027329 -0.018912973
000370 73 3d 47 bc 50 58 93 bc 0d 77 a5 bd 66 58 65 3c
       -0.012160647 -0.017986447 -0.08079348 0.013998127
000380 81 80 7c 3b 39 d9 c4 bc fc e7 a5 3d 1c 81 1a 3d
       0.0038528743 -0.024029361 0.08100888 0.037720785
000390 8f 5c aa 3d 81 b1 0e bd a0 53 95 bc 5c 99 c6 bd
       0.083184354 -0.03483725 -0.018228352 -0.0969722
0003a0 bd 78 e9 bc 72 3b ba bc 6c d1 b9 bd 77 2a f1 3d
       -0.028499955 -0.022733424 -0.09073147 0.11775678
0003b0 e4 90 9e 3d d0 0e 7b bd 62 9f e5 bd 5d 96 90 bd
       0.077424794 -0.061293423 -0.112120405 -0.070599295
0003c0 6b 65 81 3d 87 e1 2f bd fe 0b 89 3d f7 ce 61 3d
       0.06318172 -0.04293969 0.066917405 0.055129018
0003d0 20 ab 0a 3d 85 12 93 bd 29 15 0d 3d 81 45 c7 3c
       0.033854604 -0.07181267 0.034444008 0.024325134
0003e0 d5 47 3b 3d f7 61 3c be 5a 96 6a 3d 08 02 87 3d
       0.0457228 -0.18396746 0.057272293 0.06592184
0003f0 5c 43 6a 3d e1 46 6f bd 16 7e c8 bd 52 38 a9 bd
       0.057193145 -0.058417205 -0.09789674 -0.08262695

network.4.bias f4 [64]
000000 95 cc 90 3c dd 7e 67 bc 63 36 52 bd a6 4d 21 3d
       0.017675677 -0.014129368 -0.0513214 0.039380692
000010 5e 55 54 3c 9e 38 9a 3d b2 2e 17 3d ef a5 b3 bd
       0.012959806 0.0753033 0.036909766 -0.08771884
000020 99 5b f6 3b 04 50 58 3d e3 1f 4f 3d af 4c 09 3d
       0.0075182435 0.052810684 0.05056752 0.033520397
000030 3f eb 73 3b 2e 8c 8e bc 2c 34 93 3d fc b3 4b bd
       0.0037219075 -0.017400827 0.07187685 -0.049732193
000040 c1 d6 46 bd 16 42 85 bc 28 af cd bc 98 27 8c 3d
       -0.04854465 -0.016266864 -0.025107935 0.068434894
000050 3a a3 ca bd 69 52 7b 3d 16 3c 01 3e 96 f1 13 3e
       -0.09894414 0.06135789 0.12620577 0.14447626
000060 73 d1 4e 3c 71 af 1e bd bc 45 b4 3c a4 22 2c 3c
       0.012623179 -0.038741533 0.022005908 0.010506306
000070 23 26 a7 bd b1 ad 1e bd 49 28 9a 3c 2c cf 2d 3d
       -0.08161571 -0.038739864 0.018818038 0.042433903
000080 f9 75 f2 39 73 4a a4 3d 7a 31 0e 3d ef 4d 06 3e
       0.00046245733 0.080220126 0.034715153 0.13115667
000090 0c 55 06 3c ac e1 e4 3c 3b cc fa bc 9a 89 02 3e
       0.008198988 0.02793964 -0.030614963 0.12747803
0000a0 ff bd 9b bd 6c 19 ac 3d f1 a8 9d bd 92 54 7d 3d
       -0.07604598 0.08403286 -0.07698239 0.06184823
0000b0 a5 ad 65 3c 80 61 c9 3d 0f 5a c6 3d 55 24 9a bd
       0.014018451 0.0983305 0.09685146 -0.07526461
0000c0 3a 1e d9 3d a4 64 13 3e a6 67 92 3d 9a 5f 49 3c
       0.106014684 0.1439386 0.071486756 0.01229086
0000d0 40 d3 e8 bc 5c 59 b1 bc fb d9 20 bd 60 6a a0 bd
       -0.028421044 -0.021649055 -0.039270382 -0.078327894
0000e0 35 70 9f bc 5d 61 02 3d b6 d4 fc 3b 74 86 24 bc
       -0.019462684 0.031831134 0.007715787 -0.010041822
0000f0 b5 6b 74 3d 8e 84 6a 3d 18 c6 6e 3d 56 63 d8 b9
       0.05967303 0.05725532 0.058294386 -0.00041272742

network.6.weight f4 [64]
000000 b0 20 6f 3f bf 72 72 3f a3 02 82 3f 4d f5 83 3f
       0.9340925 0.9470634 1.0157055 1.0309235
000010 b1 9b 80 3f 7b 0a 77 3f 52 9f 72 3f a5 29 77 3f
       1.0047513 0.96500367 0.94774354 0.9654792
000020 c7 86 74 3f 3f 43 83 3f 8c 47 83 3f 7f 42 73 3f
       0.95518154 1.0254897 1.0256209 0.9502334
000030 15 7b 83 3f f6 7d 76 3f 59 87 84 3f 75 b5 84 3f
       1.0271937 0.9628595 1.0353805 1.0367876
000040 3f b9 6b 3f 41 70 89 3f a4 4d 71 3f 72 86 80 3f
       0.9207954 1.0737382 0.94259095 1.004103
000050 8f 26 8a 3f 46 3f 83 3f 67 69 77 3f f7 16 81 3f
       1.0793017 1.0253685 0.96645206 1.0085133
000060 93 9c 7c 3f 0e c4 85 3f 15 5d 80 3f e9 18 7a 3f
       0.98676413 1.0450456 1.0028406 0.9769426
000070 89 b8 75 3f 74 26 7d 3f c0 aa 78 3f 5c d8 81 3f
       0.95984703 0.988868 0.97135544 1.0144153
000080 4f 9e 6f 3f 57 42 7e 3f 6d 97 77 3f 44 f3 7b 3f
       0.93600935 0.99319977 0.9671543 0.9841807
000090 61 ce 64 3f 30 8f 6f 3f bf c5 78 3f d8 86 70 3f
       0.8937741 0.9357786 0.97176737 0.93955755
0000a0 df a5 7b 3f 20 0e 80 3f 97 1d 89 3f bb ad 82 3f
       0.98299974 1.0004311 1.0712155 1.0209268
0000b0 aa de 84 3f fc 4a 82 3f eb 09 88 3f e6 75 7d 3f
       1.0380452 1.0179133 1.0628027 0.99008024
0000c0 b6 3f 6c 3f 30 15 85 3f 5e c7 7e 3f f4 dd 6e 3f
       0.92284715 1.0397091 0.9952296 0.93307424
0000d0 f2 cb 6d 3f 76 0d 7a 3f cb 99 82 3f d7 0d 7c 3f
       0.9288932 0.9767679 1.0203184 0.9845862
0000e0 ba fe 6d 3f bb 16 74 3f f3 4a 7b 3f 71 a9 83 3f
       0.92966807 0.95347184 0.9816124 1.0286084
0000f0 76 7a 80 3f 51 3e 88 3f 8a 8d 81 3f 0d 16 79 3f
       1.0037372 1.0644017 1.0121319 0.9729927

network.6.bias f4 [64]
000000 c9 54 a4 3d d2 09 11 bb 88 77 91 bd 83 c0 eb bd
       0.08023984 -0.0022131098 -0.07102877 -0.11511328
000010 ce 08 8a 3d 9c 38 c0 3a 09 7a 3d bd bd 09 21 be
       0.067399606 0.0014665308 -0.04625896 -0.15726371
000020 ef e9 cd 3d 26 c9 af bd 52 92 22 be bb 39 96 bd
       0.10054385 -0.08583288 -0.1587613 -0.0733523
000030 f2 5b 25 be a1 d4 6c bd c3 80 1f be ac 23 0d be
       -0.16148356 -0.057819966 -0.15576462 -0.13783139
000040 4b be 7d bc fd 61 11 be 33 ae ac 3d d1 cb 98 3d
       -0.015487264 -0.14197536 0.08431663 0.0746075
000050 d8 93 d0 bd 70 f1 7a 3d b5 d5 ee 3d 68 4d cc 3d
       -0.10184449 0.06126541 0.11661855 0.099757016
000060 83 b9 01 be dc 25 03 be 23 70 1b 3d 5b 43 e5 3c
       -0.12668423 -0.12807411 0.03794874 0.02798622
000070 36 5d 05 be 46 d8 2e bc 0f f8 fd bd 87 b0 3b bd
       -0.13023838 -0.010671681 -0.12400829 -0.045822646
000080 0f ef bd 3c 9b c0 a9 bd e2 40 51 3d 64 5d 18 3e
       0.023185281 -0.0828869 0.051087268 0.14879376
000090 0d 56 d2 3d 66 c1 97 3d ae 7d 27 be 03 31 d0 3d
       0.10270319 0.07409935 -0.16356537 0.10165598
0000a0 3b 51 4d 3d f1 1e 1b 39 1d d1 b9 bd 1b ef 0c bd
       0.050126296 0.00014793478 -0.09073088 -0.034407716
0000b0 b9 4e 49 be c4 de 72 3c 5a cd 48 be de 14 18 be
       -0.19658937 0.014823619 -0.19609585 -0.1485171
0000c0 09 84 7a 3d 4b 58 b8 3d 2d 7f a5 3d 6d ad 01 be
       0.061161075 0.090012155 0.080808975 -0.12663813
0000d0 38 f5 8b 3d a3 b5 30 3d d5 3f 33 bd 9f 47 36 be
       0.06833881 0.043141972 -0.043762047 -0.17800759
0000e0 81 04 9c 3d 5b cb ab bd 28 00 3c 3c 60 ea d6 bd
       0.076180466 -0.08388396 0.011474647 -0.10493922
0000f0 d6 f7 82 3d b7 9f 42 bd 9b 7a 30 be 6e 9a 57 bd
       0.06394927 -0.047515597 -0.1723427 -0.05263751

network.6.running_mean f4 [64]
000000 15 ef 21 3f 4b 64 e6 3e 3e 82 f9 3e 28 e5 c1 3e
       0.63255435 0.44998392 0.4873218 0.37870145
000010 0d 6e ef 3e 64 79 d7 3e f5 bc 13 3f b3 4a b5 3e
       0.4676365 0.420848 0.577102 0.35408553
000020 e2 d3 00 3f c2 28 fa 3e 20 d1 e0 3e ec 28 df 3e
       0.5032331 0.4885922 0.4390955 0.43585908
000030 05 2a 86 3e b2 f7 bd 3e 78 da 0c 3f 72 1a 82 3e
       0.26203933 0.3710304 0.55020857 0.254108
000040 df 31 8a 3e 0d 83 eb 3e b7 2b 14 3f 01 77 28 3f
       0.26991174 0.4599842 0.57879204 0.65806586
000050 2a d9 8f 3e cd 3a c2 3e 44 c9 1d 3f 97 fa 19 3f
       0.2809537 0.37935486 0.6163523 0.60147995
000060 68 67 9d 3e 4a 92 a1 3e 5a 57 c0 3e c4 9c c9 3e
       0.30742955 0.31556922 0.37566644 0.39377415
000070 2b 31 92 3e c0 9c ae 3e 1e fc c2 3e f0 f1 d8 3e
       0.28553137 0.34103966 0.38082975 0.42372084
000080 41 fb ea 3e a3 c3 01 3f d2 8c d3 3e 76 eb 0e 3f
       0.45894817 0.5068914 0.41318375 0.55828035
000090 b3 40 19 3f 71 23 cf 3e f0 59 bc 3e 8f 3f 32 3f
       0.5986435 0.40456727 0.36787367 0.6962823
0000a0 a1 2e bc 3e a3 8f f2 3e 62 2f 7f 3e 37 4e 04 3f
       0.36754325 0.4737521 0.24920419 0.51681846
0000b0 5b d6 9d 3e 45 17 0f 3f a5 15 3e 3f bf dd 93 3e
       0.30827603 0.5589488 0.74251777 0.28880116
0000c0 6d 78 05 3f 68 40 33 3f c2 b1 f2 3e dd 41 d1 3e
       0.5213688 0.7002015 0.47401243 0.40870562
0000d0 1a 4f da 3e 6c 45 c9 3e e7 be ab 3e 75 7f 8f 3e
       0.42638475 0.39310777 0.33544084 0.2802693
0000e0 3a 77 06 3f 82 61 c4 3e 14 6a ba 3e 75 b9 ca 3e
       0.52525675 0.38355643 0.36409056 0.39594617
0000f0 62 ff f2 3e 17 c6 c9 3e c9 9d a1 3e 98 7d a0 3e
       0.47460467 0.39408943 0.31565693 0.3134582

network.6.running_var f4 [64]
000000 21 02 e0 3e e7 76 ac 3e 39 35 0e 3f 38 23 b1 3e
       0.43751624 0.33684465 0.5554996 0.34597182
000010 ac 36 08 3f f8 6b 12 3f 3e 85 d8 3e 7b 39 db 3e
       0.5320842 0.57196 0.42289156 0.42817292
000020 39 64 09 3f 36 53 3e 3f ca 0a 23 3f 0b 6a 07 3f
       0.5366855 0.7434572 0.6368834 0.52896184
000030 3a 7c be 3e 07 89 cc 3e 04 83 f9 3e f7 38 43 3e
       0.37204152 0.39948294 0.4873277 0.19064699
000040 b6 d4 2b 3e 07 e2 f3 3e e2 57 ee 3e ed f3 13 3f
       0.16780362 0.47633383 0.46551424 0.57794076
000050 c9 f5 c7 3e 34 1c a4 3e f1 6f 16 3f c9 ba f2 3e
       0.39054707 0.32052767 0.5876456 0.4740813
000060 88 95 1f 3f 79 e3 e5 3e a8 2e ce 3e 88 5b 90 3e
       0.6233754 0.4490011 0.4026997 0.28194833
000070 0b 49 e8 3e 93 8a a2 3e 9d b7 a6 3e 51 d1 dc 3e
       0.45368227 0.3174635 0.3256196 0.43128446
000080 cf fe 1a 3f 47 0a bc 3e d8 b1 bc 3e 9b cc 28 3f
       0.6054506 0.3672659 0.36854434 0.65937203
000090 45 bd 81 3e 4f 67 f1 3e 1b be e7 3e ab a0 e2 3e
       0.25339714 0.4714913 0.45262226 0.44263205
0000a0 bc c8 b5 3e f6 2b 94 3e 77 51 af 3e 39 e5 01 3f
       0.3550471 0.2893979 0.3424184 0.5074039
0000b0 4e 88 89 3e d9 6e c2 3e 68 1b 3a 3f 6a 84 d8 3e
       0.26861805 0.37975195 0.7269807 0.42288524
0000c0 36 aa 2f 3f 1d 0e 0c 3f d4 f3 02 3f 3c 4e cb 3e
       0.68619096 0.54709035 0.511533 0.39708126
0000d0 35 97 db 3e 9d cd 8d 3e c6 cc b8 3e bd c4 ab 3e
       0.428888 0.27695933 0.3609373 0.33548537
0000e0 7f 01 0c 3f 35 0d d6 3e d5 82 5b 3e 85 35 20 3f
       0.5468978 0.4180695 0.21436627 0.62581664
0000f0 61 03 92 3e b2 2f 9a 3e e3 4f 27 3f 92 07 db 3e
       0.28518203 0.30114514 0.6535627 0.42779213

network.8.weight f4 [32, 64]
000000 94 81 95 3d 3b cf 9c 3d 3d dc 5b bd a9 54 86 bd
       0.07300106 0.076567136 -0.053676832 -0.065591164
000010 02 d0 bc 3d ce 71 6f bd 3a ff be bd d0 6b f5 3c
       0.09219362 -0.058458142 -0.09326024 0.029958636
000020 6a fe ab 3c 09 0f 16 bd d2 98 93 3a 5f 5c 87 39
       0.020995338 -0.036635432 0.0011260754 0.00025818028
000030 2f cd 8a 3c 77 df 4b bd 64 7b 2a be 0f 47 d9 3c
       0.016943542 -0.04977366 -0.16648632 0.026523141
000040 6c db 88 3d 02 5d 64 bb 02 0c 83 bc d8 89 74 bd
       0.066824764 -0.0034845476 -0.015996937 -0.05970177
000050 c4 e8 f0 bd 84 b6 33 3d 29 f7 c7 3d 12 20 05 be
       -0.117631465 0.043875232 0.09763939 -0.13000515
000060 18 94 42 bd 55 5d c3 bd 0b 89 d1 3d 69 a6 e6 3c
       -0.047504514 -0.09539286 0.10231217 0.028155522
000070 40 52 0a bd 8b 7d 27 be 3e e5 b9 3c 0c 37 fb 3d
       -0.033769846 -0.16356485 0.022692319 0.12266359
000080 f9 cc d4 3d 09 4e 3c bd a0 d0 aa bd 46 a5 d1 bc
       0.10390658 -0.045972858 -0.08340573 -0.025591504
000090 02 90 a9 bb a1 bd a2 3b b9 4f f0 3d 82 8f 1b 3d
       -0.005174638 0.004966453 0.11733956 0.037978657
0000a0 04 15 83 bd 64 b1 9c bd 93 ef ef 3d ec ad ad bd
       -0.06400493 -0.07651022 0.11715617 -0.084804386
0000b0 6a 0b 45 be a1 58 5a 3a 81 ab 1e bd c7 dc ce bd
       -0.19242635 0.0008329247 -0.038737778 -0.10100704
0000c0 08 02 73 3d dc ff 67 bd bd a3 e5 3d 7c 17 81 3d
       0.05932811 -0.05664049 0.11212871 0.063033074
0000d0 77 64 2a 3d 13 0b 09 be d7 f7 e5 3d 48 3e 98 3c
       0.041599717 -0.1338313 0.11228912 0.018584386
0000e0 51 6f 8e 3c 21 f7 ed 3d d1 90 bb 3d 8a 99 a2 bd
       0.017387064 0.11619402 0.09158481 -0.079394415
0000f0 d4 88 9d bb aa 9a 19 be 2f f6 c2 3c d7 17 ce 3d
       -0.004807571 -0.15000406 0.02379903 0.10063141
000100 15 4e 48 3d 7b f1 9c b8 7c 03 90 3d 6c 37 46 be
       0.04890259 -7.483639e-05 0.070319146 -0.1935708
000110 f2 29 5b 3d 2f 45 0a 3d 47 bf 4b 3b de e9 12 3c
       0.0535068 0.033757385 0.0031089352 0.008966891
000120 8c 29 71 bd 42 c0 99 3d 2c 03 9b 3c 8b 88 97 bd
       -0.058877513 0.075073734 0.01892241 -0.073990904
000130 e0 3b e6 3c 6f 6b 25 3d 92 0c 9e 3d 50 15 86 bd
       0.028104722 0.04038566 0.07717241 -0.06547034
000140 71 64 05 3d 0c 1a 02 be 7c 69 46 bd 89 2d 2c 3d
       0.03256649 -0.12705249 -0.04844044 0.042035613
000150 cb b0 30 3c 51 44 f1 ba dc 11 88 3d 60 dc 21 be
       0.010784338 -0.0018407201 0.066440314 -0.15806723
000160 58 07 0c 3d e9 41 de bd 52 a1 bc 3d 0a fb a9 bd
       0.03418669 -0.10852415 0.09210457 -0.08299835
000170 57 9c 56 bd 4d 0e 54 3c 5c 3a 59 3b 0a b3 ff bc
       -0.05239519 0.012942863 0.0033146357 -0.031213302
000180 8d 36 1c 3d 92 76 05 bd 17 d1 a5 bd a3 70 15 3b
       0.03813796 -0.03258378 -0.08096521 0.0022802732
000190 24 74 56 3c b0 53 51 be a5 21 bf bd 3d 18 65 bd
       0.0130892135 -0.2044208 -0.09332589 -0.05593132
0001a0 70 4f 8f bc 5f 62 03 bd cb 19 35 be a4 b1 c0 bb
       -0.017493933 -0.032076236 -0.1768562 -0.0058805514
0001b0 09 c2 3e 3d 49 d1 48 be 2e bd d3 bc 30 7f ad 3c
       0.046571765 -0.19611086 -0.025847044 0.021178812
0001c0 48 9e 2b 3c 90 7a c6 3d 82 c5 35 3d 5d d5 26 3c
       0.010474749 0.09691346 0.04437781 0.010182706
0001d0 d3 22 60 3d fa db d1 bb 71 2a cf 3d 6e f6 53 3d
       0.05472071 -0.006404397 0.10115517 0.051748686
0001e0 42 3b 2b bd f4 da df bd 90 ce 87 3d e1 6b 11 3b
       -0.04180456 -0.10930434 0.066311955 0.0022189545
0001f0 de b5 1f 3c f4 ba 45 bd 66 19 30 be a7 ea d3 3c
       0.00974795 -0.048273996 -0.17197189 0.025868727
000200 a5 a2 dc bc e2 4e ac 3d 5e b9 b3 bb dd fb 58 bd
       -0.026933024 0.08413483 -0.005484744 -0.05297457
000210 63 90 51 3d c3 3e e8 bd 1a 90 48 3c 68 84 84 3d
       0.05116309 -0.11340096 0.012241388 0.06470567
000220 14 d9 f0 3d f6 81 ce bd f7 c2 d0 bd b1 5d fe bc
       0.11760154 -0.10083382 -0.101934366 -0.031050535
000230 0b 19 60 3c 6f 8a b7 3d 85 24 e2 bd 18 38 16 be
       0.013677846 0.08961951 -0.11042122 -0.14669836
000240 d0 4d 3e bd 29 74 fc bd 5d cf 22 3d 3c b7 f6 3d
       -0.046460927 -0.12326843 0.03974854 0.12046668
000250 e2 6d fa 3c ed 46 f4 bc 17 bf c4 3d ec 00 b4 3d
       0.030569974 -0.029818976 0.0960676 0.08789238
000260 d1 1c c2 3d 6f 36 c8 bd d5 09 a0 3d c5 70 8f 3c
       0.094781525 -0.097760074 0.07814375 0.017509827
000270 d9 d8 46 3c 60 b1 af 3c 77 38 ab bd d7 d5 64 3c
       0.012136661 0.021446884 -0.08360379 0.013966999
000280 fb 37 8b bd 23 88 2d 3e 50 18 0b 3e 6d bc 62 3d
       -0.06797787 0.16946463 0.13583493 0.055355478
000290 0a 78 18 bd a9 93 4b bd 82 59 08 3d da dd 48 bc
       -0.037223853 -0.049701367 0.033288486 -0.012259925
0002a0 20 01 9d 3b 13 76 93 bb c6 26 91 3c 69 0a 9f bd
       0.004791394 -0.0045001595 0.017718684 -0.077656575
0002b0 8e 59 0b be 50 cd fd bc 6c b4 45 3c ad e9 4b bd
       -0.13608381 -0.03098169 0.012066942 -0.049783397
0002c0 e3 84 cb 3c 5e 5b 8a 3d 83 b3 2e bd d5 20 3a bb
       0.024843639 0.06755708 -0.042651664 -0.0028400917
0002d0 c1 b2 44 3d ea da e0 3d 85 c4 1d bd f3 6d a0 bd
       0.048022036 0.109792545 -0.038517494 -0.07833471
0002e0 9d b1 fb bc 87 14 bf bd 98 53 3a be 65 39 a7 3d
       -0.030724341 -0.09330087 -0.18195951 0.08165244
0002f0 de 38 20 3d 01 f4 5d bc 9a 50 20 be d0 21 58 3d
       0.039116733 -0.013546945 -0.15655747 0.05276662
000300 0e 43 be bc a5 73 4b 3d ec 54 09 be 8a d5 f6 bb
       -0.023225334 0.049670834 -0.13411301 -0.00753278
000310 0f 71 a3 3d 42 65 bb 3d 69 7d 32 be 02 16 dc bd
       0.079805486 0.09150173 -0.17430653 -0.10746385
000320 1b 6e 60 3c 17 2a 45 3d fe f5 94 3d 43 5c 54 bd
       0.013698126 0.048135843 0.07273482 -0.0518458
000330 5e 77 8f 3d b6 6e 0b bd d0 7c c7 bc 43 59 1e be
       0.07005189 -0.03404113 -0.024351507 -0.15463738
000340 63 28 00 3e 8b a2 11 be 6e db 0b bd 05 02 76 3d
       0.12515406 -0.14222161 -0.03414481 0.06006052
000350 a1 24 1e 3e 70 b2 69 3c 08 b2 74 bc 81 78 02 3b
       0.1544366 0.014263734 -0.014935024 0.0019908252
000360 cf 1f 8c bb cf d3 0e 3e 3e e5 07 3c 49 21 57 3d
       -0.004276253 0.13947986 0.008294402 0.052521978
000370 9c 76 4c bd 31 4f 49 bc 8f 25 15 bd a9 9c b3 3b
       -0.049917802 -0.012286947 -0.03641277 0.005481322
000380 06 50 b4 3d 8c 6a 06 bd 08 2a b3 3d 68 f0 81 3d
       0.08804326 -0.032816455 0.08748251 0.06344682
000390 29 63 8e bd 8c 2e 95 bb 5d 00 ab bd 67 55 fb 3b
       -0.06952507 -0.004552668 -0.08349679 0.007670093
0003a0 88 90 3b bc b9 46 94 3d 61 60 0b 3e 5d 0c e9 bd
       -0.011448033 0.07240052 0.13610984 -0.11379311
0003b0 20 5a 75 3d 7e 65 d9 3c 79 3a f4 bd d7 06 0d 3d
       0.059900403 0.026537653 -0.11925215 0.03443035
0003c0 6d 6f e3 bb e8 18 81 3c a4 3d ac 3d ea e4 a1 bd
       -0.006940773 0.015758947 0.084101945 -0.0790499
0003d0 78 f3 bd bc 30 98 8d 3c 96 1b b8 bc 32 d4 40 3d
       -0.023187384 0.017284483 -0.022474092 0.047077365
0003e0 35 f3 81 bd 12 17 ae 3b 84 6e d7 bd 94 ce 08 3e
       -0.06345216 0.005312809 -0.10519126 0.13360053
0003f0 8e 50 bd bd 68 44 a8 3d 7b 37 b6 3d a8 21 4c 3d
       -0.0924388 0.082161725 0.08897301 0.049836785

network.8.bias f4 [32]
000000 0b 33 c6 3d 40 5d 75 3e e5 57 30 3e fc e9 df 3d
       0.096777044 0.23961353 0.17221029 0.10933301
000010 1d 2d 97 3c 2e 2b e4 3d ff d0 37 3e 6d 80 40 3e
       0.018454129 0.11141048 0.1795082 0.1879899
000020 85 16 a5 3d 50 e7 fe bc 6f 7d 32 3e fe 6a 81 3d
       0.08060936 -0.031116158 0.17430662 0.06319235
000030 d0 b9 6d 3e 8f 82 67 3e ee 78 ea 3d 5a 06 61 3e
       0.23215413 0.22608398 0.11448847 0.21975079
000040 a1 28 ce 3d 70 aa 6b 3e ac 9d 91 3e cc d0 c4 3d
       0.10066343 0.23014235 0.28440607 0.09610137
000050 80 29 5f 3e e6 4f 82 3e e5 44 b8 3d a4 15 03 3e
       0.21793175 0.25451583 0.089975156 0.12801224
000060 d8 48 d3 3b b6 75 44 3e 06 f9 29 3e da c1 5a 3e
       0.0064478926 0.19185528 0.16598901 0.21363011
000070 54 8e 23 bd 4b 0a 06 3e 2d f9 6c 3e d7 55 03 3e
       -0.039930657 0.13089864 0.23141928 0.12825714

network.10.weight f4 [32]
000000 d6 bd a8 3f dd 16 a4 3f ce 12 a0 3f 17 1d ab 3f
       1.3182933 1.2819477 1.2505739 1.3368253
000010 9f eb a8 3f cb 67 a5 3f 9d 23 b2 3f 87 e4 a2 3f
       1.3196906 1.29223 1.3917118 1.2725991
000020 96 05 b1 3f 55 08 a6 3f af f1 ac 3f 3b cc a7 3f
       1.382983 1.2971293 1.3511256 1.3109201
000030 e8 c0 aa 3f db c0 a9 3f 77 e2 ac 3f 36 f1 a5 3f
       1.334012 1.326198 1.3506612 1.2964237
000040 4e cb ae 3f 4b 29 a4 3f 1a 81 a4 3f 3e db a0 3f
       1.3655794 1.2825102 1.2851899 1.2566907
000050 91 a2 a0 3f f3 01 a3 3f 12 e1 a7 3f 47 94 a8 3f
       1.2549611 1.273497 1.3115561 1.3170251
000060 18 20 9c 3f d0 6f ad 3f c5 44 a5 3f 72 b2 a4 3f
       1.2197294 1.3549747 1.2911612 1.2866957
000070 e2 32 a4 3f f6 2d a4 3f ad 78 aa 3f 0c dc aa 3f
       1.2828028 1.2826526 1.3318077 1.3348403

network.10.bias f4 [32]
000000 4c ce 73 be 25 4e 27 bd b6 f0 77 be 1c 84 9a be
       -0.23809165 -0.04084601 -0.24212918 -0.30178916
000010 f9 31 92 be 17 56 6a bd 80 20 a0 be 18 5c bc bd
       -0.2855375 -0.057211008 -0.31274796 -0.09197253
000020 ff b3 13 bd 69 e1 65 be 45 63 60 be 34 5b 0d be
       -0.03606033 -0.22449268 -0.21912868 -0.13804322
000030 f7 ee 35 3e c3 14 4e 3e 77 a8 58 3e ab 0f ea 3c
       0.17766939 0.20125107 0.21158014 0.028571924
000040 55 e5 25 3e b2 e0 16 3e a6 3e 13 3e 4e 6c b4 3d
       0.16200764 0.14734152 0.14379367 0.0880972
000050 14 c2 5d bd fe a3 f9 bd 15 df b2 be c3 57 1a 3a
       -0.054140165 -0.12189482 -0.34935823 0.00058877113
000060 02 f2 14 3d 9b 25 84 be b4 3a 6e 3d 58 45 f7 3d
       0.03636361 -0.2580994 0.058161452 0.12073773
000070 42 b9 8f be e2 7b 7c bd 0c d8 3c 3e 0f 5e 80 be
       -0.28071028 -0.06164158 0.1844179 -0.2507176

network.10.running_mean f4 [32]
000000 3a 99 27 3f a0 a5 22 3f 97 4d 39 3f 1e df 1c 3f
       0.6546818 0.63533974 0.7238402 0.6127795
000010 56 62 01 3f 98 2a 45 3f c7 66 47 3f f5 e1 38 3f
       0.50540674 0.7701812 0.778912 0.72219783
000020 c8 5b 14 3f 1b 37 0a 3f d8 e1 38 3f f5 3c 1b 3f
       0.5795255 0.53990334 0.7221961 0.6063989
000030 36 87 33 3f db ea 3f 3f f0 7f 71 3f 0a 5f 44 3f
       0.7012819 0.74967736 0.9433584 0.7670752
000040 17 c4 59 3f 68 5b 42 3f 47 1d 36 3f a7 fa 52 3f
       0.85064834 0.75920725 0.71138424 0.82413715
000050 c3 99 40 3f ff 06 38 3f 18 d3 05 3f 7d c1 2e 3f
       0.7523462 0.71885675 0.5227523 0.6826399
000060 b4 c2 23 3f da 55 1c 3f 16 7b 31 3f 88 7c 30 3f
       0.6396897 0.610685 0.6932844 0.6894002
000070 6a 6f de 3e 82 2d 55 3f 51 a6 58 3f bd a1 19 3f
       0.43444377 0.83272564 0.8462878 0.6001242
